…
{\fonttbl\f0\fmodern\fcharset0 Courier;}
{\colortbl;\red255\green255\blue255;\red25\green25\blue25;}
{\*\expandedcolortbl;;\cssrgb\c12941\c12941\c12941;}
\paperw11900\paperh16840\margl1440\margr1440\vieww19260\viewh12040\viewkind0
\deftab720
\pard\pardeftab720\partightenfactor0

\f0\fs28 \cf2 \expnd0\expndtw0\kerning0
Training shape:  (214, 1024, 3)\
Test shape: 	 (72, 1024, 3)\
_________________________________________________________________\
Layer (type)                 Output Shape              Param #   \
=================================================================\
input_2 (InputLayer)         (None, 1024, 3)           0         \
_________________________________________________________________\
lambda_3 (Lambda)            (None, 1024, 3)           0         \
_________________________________________________________________\
conv1d_15 (Conv1D)           (None, 1024, 64)          256       \
_________________________________________________________________\
batch_normalization_23 (Batc (None, 1024, 64)          256       \
_________________________________________________________________\
conv1d_16 (Conv1D)           (None, 1024, 64)          4160      \
_________________________________________________________________\
batch_normalization_24 (Batc (None, 1024, 64)          256       \
_________________________________________________________________\
lambda_4 (Lambda)            (None, 1024, 64)          0         \
_________________________________________________________________\
conv1d_20 (Conv1D)           (None, 1024, 64)          4160      \
_________________________________________________________________\
batch_normalization_30 (Batc (None, 1024, 64)          256       \
_________________________________________________________________\
conv1d_21 (Conv1D)           (None, 1024, 128)         8320      \
_________________________________________________________________\
batch_normalization_31 (Batc (None, 1024, 128)         512       \
_________________________________________________________________\
conv1d_22 (Conv1D)           (None, 1024, 1024)        132096    \
_________________________________________________________________\
batch_normalization_32 (Batc (None, 1024, 1024)        4096      \
_________________________________________________________________\
max_pooling1d_6 (MaxPooling1 (None, 1, 1024)           0         \
_________________________________________________________________\
dense_16 (Dense)             (None, 1, 512)            524800    \
_________________________________________________________________\
batch_normalization_33 (Batc (None, 1, 512)            2048      \
_________________________________________________________________\
dropout_3 (Dropout)          (None, 1, 512)            0         \
_________________________________________________________________\
dense_17 (Dense)             (None, 1, 256)            131328    \
_________________________________________________________________\
batch_normalization_34 (Batc (None, 1, 256)            1024      \
_________________________________________________________________\
dropout_4 (Dropout)          (None, 1, 256)            0         \
_________________________________________________________________\
dense_18 (Dense)             (None, 1, 2)              514       \
_________________________________________________________________\
flatten_2 (Flatten)          (None, 2)                 0         \
=================================================================\
Total params: 814,082\
Trainable params: 809,858\
Non-trainable params: 4,224\
_________________________________________________________________\
None\
Current epoch is:1\
Current epoch is:2\
Current epoch is:3\
Current epoch is:4\
Current epoch is:5\
72/72 [==============================] - 0s 5ms/step\
Test loss:  2.241493542989095\
…
