…
-----------
Found 24 unique tokens.
CNN train shape: 	 (5773, 16, 16, 16, 1)
RNN train shape: 	 (5773, 5)
Label train shape: 	 (5773, 18)


CNN test shape: 	 (1925, 16, 16, 16, 1)
RNN test shape: 	 (1925, 5)
Label test shape: 	 (1925, 18)
Running models ---------------------------------------------------
---------------------------- CNN ---------------------------------
_________________________________________________________________
Layer (type)                 Output Shape              Param #   
=================================================================
conv3d_1 (Conv3D)            (None, 14, 14, 14, 8)     224       
_________________________________________________________________
conv3d_2 (Conv3D)            (None, 12, 12, 12, 16)    3472      
_________________________________________________________________
max_pooling3d_1 (MaxPooling3 (None, 6, 6, 6, 16)       0         
_________________________________________________________________
conv3d_3 (Conv3D)            (None, 4, 4, 4, 32)       13856     
_________________________________________________________________
conv3d_4 (Conv3D)            (None, 2, 2, 2, 64)       55360     
_________________________________________________________________
max_pooling3d_2 (MaxPooling3 (None, 1, 1, 1, 64)       0         
_________________________________________________________________
batch_normalization_1 (Batch (None, 1, 1, 1, 64)       256       
_________________________________________________________________
flatten_1 (Flatten)          (None, 64)                0         
_________________________________________________________________
dense_1 (Dense)              (None, 4096)              266240    
_________________________________________________________________
dropout_1 (Dropout)          (None, 4096)              0         
_________________________________________________________________
batch_normalization_2 (Batch (None, 4096)              16384     
_________________________________________________________________
dense_2 (Dense)              (None, 512)               2097664   
_________________________________________________________________
dropout_2 (Dropout)          (None, 512)               0         
_________________________________________________________________
batch_normalization_3 (Batch (None, 512)               2048      
_________________________________________________________________
dense_3 (Dense)              (None, 18)                9234      
=================================================================
Total params: 2,464,738
Trainable params: 2,455,394
Non-trainable params: 9,344
_________________________________________________________________

####################### Training Model #############################
Training...
Train on 5195 samples, validate on 578 samples
Epoch 1/25

 128/5195 [..............................] - ETA: 58s - loss: 3.5947 - acc: 0.0625
…
