X shape is:  (1716, 4096)
y shape is:  (1716,)
Splitting the data...
_________________________________________________________________
Layer (type)                 Output Shape              Param #   
=================================================================
conv3d_1 (Conv3D)            (None, 14, 14, 14, 8)     224       
_________________________________________________________________
conv3d_2 (Conv3D)            (None, 12, 12, 12, 16)    3472      
_________________________________________________________________
max_pooling3d_1 (MaxPooling3 (None, 6, 6, 6, 16)       0         
_________________________________________________________________
conv3d_3 (Conv3D)            (None, 4, 4, 4, 32)       13856     
_________________________________________________________________
conv3d_4 (Conv3D)            (None, 2, 2, 2, 64)       55360     
_________________________________________________________________
max_pooling3d_2 (MaxPooling3 (None, 1, 1, 1, 64)       0         
_________________________________________________________________
batch_normalization_1 (Batch (None, 1, 1, 1, 64)       256       
_________________________________________________________________
flatten_1 (Flatten)          (None, 64)                0         
_________________________________________________________________
dense_1 (Dense)              (None, 4096)              266240    
_________________________________________________________________
dropout_1 (Dropout)          (None, 4096)              0         
_________________________________________________________________
batch_normalization_2 (Batch (None, 4096)              16384     
_________________________________________________________________
dense_2 (Dense)              (None, 512)               2097664   
_________________________________________________________________
dropout_2 (Dropout)          (None, 512)               0         
_________________________________________________________________
batch_normalization_3 (Batch (None, 512)               2048      
_________________________________________________________________
dense_3 (Dense)              (None, 6)                 3078      
=================================================================
Total params: 2,458,582
Trainable params: 2,449,238
Non-trainable params: 9,344
_________________________________________________________________

####################### Training Model #############################
Training...
Train on 1097 samples, validate on 275 samples
Epoch 1/10

 128/1097 [==>...........................] - ETA: 13s - loss: 2.3383 - acc: 0.1953
…
